my_try/chekpoint/linear_first_try.ckpt (torch_old, 901 bytes, 1 tensors)

linear.weight f4 [1, 31]
-0.052742004 -0.00047045946 0.16802445 0.15673256 -0.14674672 -0.15701382 0.021283418 -0.13060023
0.15569562 0.05612369 0.15974969 -0.11073481 0.01845932 -0.16076484 0.042892218 0.053985685
-0.15573415 0.1654284 -0.030308127 -0.115011476 -0.022247002 0.074572206 -0.14907996 -0.054120272
-0.15330884 0.10235578 -0.1522452 0.16816768 0.084668756 -0.17032488 0.020019785
00000000: 0008 58bd 00a8 f6b9 9a0e 2c3e 807e 203e
00000010: c644 16be 3bc8 20be 905a ae3c 11bc 05be
00000020: ac6e 1f3e f4e1 653d 6c95 233e efc8 e2bd
00000030: 0038 973c 8a9f 24be c0af 2f3d 1820 5d3d
00000040: c678 1fbe 1066 293e c048 f8bc 238b ebbd
00000050: 583f b6bc 50b9 983d 6ba8 18be 38ad 5dbd
00000060: fefc 1cbe e89f d13d 2ae6 1bbe 2634 2c3e
00000070: d066 ad3d a569 2ebe 8800 a43c
